best_gat_model.pth (torch, 19796 bytes, 8 tensors)

conv1.att_src f4 [1, 8, 64]
-0.030521948 0.008590231 -0.0021200147 0.00023913366 -0.00012012993 0.0074002105 -0.00829731 -0.006281066
-0.00949293 -0.011813021 -0.004994527 -0.0041127787 -0.066368 -0.012371278 -0.009461333 -0.010361469
-0.017596414 -0.088487856 0.025467005 -0.037501346 -0.014613908 -0.026998851 0.00858296 0.022588434
-0.0023488079 0.012865005 -0.005714617 0.0014658339 -0.0048478143 -0.0860984 -0.0070718946 0.012473505
0.0012299945 -0.0031303854 0.0030380199 0.006676905 0.0054107984 -0.00647624 -0.004624562 0.02684339
0.008972292 -0.005784322 -0.00029315593 -0.007824263 0.019771913 -0.0098880585 -0.04389986 -0.010682573
0.00246829 0.0043780175 -0.0014044383 -0.003354741 -0.012873887 -0.012953509 -0.0057579735 -0.0033719603
-0.0027081084 -0.0049282634 -0.0033502467 -0.00203282 -0.0031496044 0.0043474576 -0.008912463 0.0071413023
-0.0006503366 -0.0051062624 -0.007945728 -0.00083667773 0.001536694 0.004361674 -0.0017272398 -0.14659244
-0.00015656078 -0.012415766 0.021025242 0.0030642203 -0.011040063 0.009173351 -0.0077524935 0.0609292
0.007827557 0.0058539384 0.002574417 -0.00023584234 -0.011748995 -0.0034155021 -0.013094002 0.06809239
0.0034021416 -0.015683897 0.00067768636 0.006325865 -0.013037541 0.0026842363 0.011640338 0.00040192567
0.00013462604 -0.0020206287 -0.07208945 -0.0066904956 0.007838236 -0.0016872088 -0.00013553243 -0.0019911088
-0.012242904 -0.0003988761 -0.0015604062 0.00912549 -0.015898159 -0.020370487 0.0041119508 0.0023545506
0.00582465 0.0022790893 -0.10674982 -0.0025234334 -0.10546542 -0.0064016497 -0.0013126179 0.001788295
-0.0002219793 0.01679245 0.0006034971 0.0003302739 -0.017593574 -0.008416328 -0.002712371 -0.104316995
-0.008313818 -0.04766013 -0.06583128 -0.025257576 -0.07982741 0.049807966 -0.014695247 -0.029310824
-0.048101857 0.00046234435 -0.15949161 -0.031211318 0.036405843 0.0043961443 -0.018951572 -0.02532015
-0.02681037 0.010490651 0.003144529 -0.004663978 -0.013093837 -0.009491971 -0.0033441216 -0.0064798454
-0.012503451 0.030112252 -0.01996034 0.09249895 -0.00407153 0.06883148 -0.07863057 -0.03860106
0.008489989 0.010365706 -0.0005386517 -0.009987125 -0.036720768 -0.022933735 -0.015549961 -0.043383785
-0.11630733 -0.008553133 0.09023998 0.020815726 -0.015999973 -0.00014892986 0.002485063 0.0051946184
-0.027376631 -0.009202333 0.03587232 -0.0030937074 0.044279505 -0.005837763 -0.043539222 -0.14834872
0.0071759126 0.0076383045 0.017683862 -0.03405143 0.027017105 0.0046086255 -0.0485093 0.007055885
-0.002057618 -0.0007986355 0.0013429683 0.0026718506 -0.0009096593 -0.00055665086 0.005264595 0.000815441
0.0032959545 -0.0033277064 0.0002750656 -0.0005310757 0.0032882506 -0.013367195 -0.0032129432 0.0017265241
-0.0016106449 -0.00876825 0.0011365153 0.0021560711 -0.000846132 0.0046282886 -0.0016344629 0.0021769179
0.00078840833 -0.00093245733 0.0011281009 -0.0057182214 -0.0003108289 -0.035406988 0.0005927031 -0.000404424
0.00010763305 -0.0014466381 -0.0009772024 -0.05252496 -0.0018897033 0.0015960387 0.0029709795 -0.002911865
0.0016962339 -0.016167676 0.007011815 0.0026711265 -0.002916614 -0.0012161253 -0.0018077705 -0.0014652362
0.0024910555 -0.0011795277 0.00030587625 -0.0024716824 -0.0015013448 -0.003470057 -0.0032442545 0.0036303315
0.000702773 -0.0039263256 -0.0010868715 -0.116282515 0.00058970967 0.0010138018 -0.18365245 0.0005917389
00000000: 2a09 fabc 0abe 0c3c f2ef 0abb f4bf 7a39
00000010: 44ee fbb8 777d f23b 71f1 07bc 67d1 cdbb
00000020: 3c88 1bbc 678b 41bc 21a9 a3bb 7dc4 86bb
00000030: f2eb 87bd e7b0 4abc b503 1bbc 27c3 29bc
00000040: 5b26 90bc 1f39 b5bd 2ea0 d03c 039b 19bd
00000050: 2c6f 6fbc b22c ddbc 8b9f 0c3c 610b b93c
00000060: 75ee 19bb bec7 523c af41 bbbb 3921 c03a
00000070: 6ada 9ebb 5c54 b0bd 5abb e7bb ac5d 4c3c
00000080: c437 a13a 2727 4dbb 8419 473b f0c9 da3b
00000090: 114d b13b a436 d4bb a389 97bb abe6 db3c
000000a0: 8500 133c 698a bdbb b9b2 99b9 5631 00bc
000000b0: b5f8 a13c 8601 22bc 57d0 33bd f505 2fbc
000000c0: 09c3 213b 7975 8f3b 2115 b8ba 37db 5bbb
000000d0: ffec 52bc f43a 54bc 62ad bcbb 1bfc 5cbb
000000e0: 857a 31bb 457d a1bb d08f 5bbb 0f39 05bb
000000f0: 9869 4ebb 1e75 8e3b 9405 12bc 9601 ea3b
00000100: 5a7b 2aba 6f52 a7bb cc2e 02bc 7e54 5bba
00000110: e56a c93a 60ec 8e3b 8d64 e2ba 541c 16be
00000120: 772a 24b9 7f6b 4bbc 213d ac3c 16d1 483b
00000130: 61e1 34bc d34b 163c a108 febb e690 793d
00000140: 273f 003c 65d2 bf3b 8db7 283b 724c 77b9
00000150: db7e 40bc 9ed6 5fbb 3a88 56bc 0674 8b3d
00000160: 77f6 5e3b 847b 80bc c3a6 313a 3449 cf3b
00000170: 699b 55bc 03ea 2f3b 1eb7 3e3c 8db9 d239
00000180: 672a 0d39 866c 04bb a2a3 93bd f23b dbbb
00000190: f26b 003c 5525 ddba b61d 0eb9 437d 02bb
000001a0: 7696 48bc 3e20 d1b9 8b86 ccba 1483 153c
000001b0: db3c 82bc 02e0 a6bc 8bbd 863b ce4e 1a3b
000001c0: b5dc be3b c65c 153b a69f dabd 3060 25bb
000001d0: 41fe d7bd eec4 d1bb 260c acba 3965 ea3a
000001e0: 1dc3 68b9 5290 893c 0134 1e3a 9d28 ad39
000001f0: 6620 90bc a3e4 09bc 09c2 31bb 26a4 d5bd
00000200: ae36 08bc 4537 43bd 8dd2 86bd fae8 cebc
00000210: 8e7c a3bd 7003 4c3d 55c4 70bc 411d f0bc
00000220: 7406 45bd cf66 f239 c551 23be e1ae ffbc
00000230: 4b1e 153d 880d 903b 5440 9bbc 346c cfbc
00000240: 6ca1 dbbc fbe0 2b3c 7114 4e3b 48d4 98bb
00000250: 8887 56bc 3684 1bbc 0d29 5bbb e254 d4bb
00000260: 46db 4cbc f8ad f63c de83 a3bc 1770 bd3d
00000270: 786a 85bb 85f7 8c3d 1009 a1bd 251c 1ebd
00000280: 9819 0b3c ecd4 293c 4e34 0dba 0aa1 23bc
00000290: 8468 16bd 87df bbbc 43c5 7ebc 32b3 31bd
000002a0: 8a32 eebd 7122 0cbc bdcf b83d be85 aa3c
000002b0: 6012 83bc 0e2a 1cb9 70dc 223b 9e37 aa3b
000002c0: f544 e0bc 62c5 16bc dbee 123d ccbf 4abb
000002d0: 6d5e 353d b54a bfbb 2f56 32bd bae8 17be
000002e0: eb23 eb3b be4a fa3b bfdd 903c 8379 0bbd
000002f0: fa52 dd3c f403 973b b0b1 46bd 0e35 e73b
00000300: 1ad9 06bb 855b 51ba 8a06 b03a 371a 2f3b
00000310: 3476 6eba 35ec 11ba a082 ac3b 52c3 553a
00000320: f100 583b a615 5abb ae36 9039 e337 0bba
00000330: b17f 573b 1402 5bbc 3e90 52bb 894c e23a
00000340: 461c d3ba b5a8 0fbc 20f7 943a df4c 0d3b
00000350: f5ce 5dba e6a8 973b 793b d6ba 9faa 0e3b
00000360: 30ad 4e3a 2770 74ba c9dc 933a eb5f bbbb
00000370: c0f6 a2b9 eb06 11bd a25f 1b3a df08 d4b9
00000380: 0eb9 e138 1f9d bdba 7915 80ba 6a24 57bd
00000390: ecaf f7ba 2c32 d13a c4b4 423b fdd4 3ebb
000003a0: 2a54 de3a 1372 84bc 5ec3 e53b 110e 2f3b
000003b0: aa24 3fbb 6566 9fba b6f2 ecba 2b0d c0ba
000003c0: fa40 233b 629a 9aba 045e a039 f3fb 21bb
000003d0: c6c8 c4ba e569 63bb 8f9d 54bb dbea 6d3b
000003e0: 4c3a 383a 68a8 80bb 5b75 8eba 8725 eebd
000003f0: bf96 1a3a 8be1 843a 630f 3cbe ed1e 1b3a

conv1.att_dst f4 [1, 8, 64]
-0.035938222 -0.0014657631 0.019347161 0.01702281 -0.007338647 -0.009682319 0.0042198333 -0.023941003
0.0146854175 -0.018332435 0.0195503 0.014734393 -0.015238022 -0.011872166 0.00670293 0.01280806
-0.023528397 -0.04524854 0.03501418 -0.030076297 -0.019730601 -0.0020876657 0.015879316 -0.0057486845
-0.0023188088 -0.013917005 0.0057757036 -0.01396831 -0.030490756 -0.039818536 0.011088343 -0.011871464
0.022911726 0.016603127 -0.00014616511 -0.0018854138 -0.0117769865 -0.00073941133 0.018088318 0.04063436
-0.008790329 0.011853469 0.0214587 -0.009029765 0.02420481 0.011342474 -0.0051451665 0.011499662
-0.019993445 -0.00574579 0.012627808 0.01282955 -0.0074292067 0.00850736 0.014557587 0.01698478
-0.0070250304 0.003167199 -0.011617049 0.017249698 -0.0016461515 -0.016932612 0.010331044 -0.0009905355
-0.001012361 -0.0051580425 -0.01102992 -0.0022597727 -0.0010050547 -0.00038572398 -0.0020657976 -0.14195983
-0.00072193955 -0.015164356 0.012723172 0.0060326066 -0.013198046 0.0124856755 -0.0095791165 0.05724089
0.0074386015 0.005656021 0.0071064 -0.000469934 -0.012659832 -0.008172109 -0.0058493717 0.06503335
0.0034425573 -0.015829198 0.0005184465 0.0059548304 -0.014558241 -0.0013440198 0.014022744 0.0005954936
0.00019154359 -0.002545565 -0.068488054 -0.0050037424 -0.0010102482 0.003968061 0.00028152406 -0.00017577721
-0.011121034 -0.0018650149 0.002872043 0.012278085 -0.010841506 -0.016885139 0.00052672514 0.006373558
0.0038648976 0.0037643388 -0.099562965 -0.0026666706 -0.109858505 -0.011515635 -0.0038117364 0.0053382996
-0.00072738895 0.016475122 0.00085389725 -0.0013175276 -0.02129096 -0.008423541 -0.0034174616 -0.10722532
-0.008239306 -0.03564369 -0.05818667 -0.02048974 -0.0399624 0.041507017 -0.015701506 -0.024801934
-0.04477868 -0.0017684252 -0.114677995 -0.0040529734 0.030528883 0.0027087538 -0.02448421 -0.016614644
-0.028124003 0.011386351 0.014408404 0.0024863943 -0.012321369 -0.011045217 0.006165296 -0.01038728
-0.013620323 0.030267641 -0.020829868 0.04624489 -0.0042479727 0.065859884 -0.07786518 -0.031181246
0.0034378704 0.012573305 -0.0020969445 -0.011293816 -0.040611677 -0.02135659 -0.018872317 -0.035721064
-0.07146693 -0.01057211 0.04538148 -0.00064986775 -0.010483884 -0.00010601751 0.0018904462 0.005755971
-0.02219871 -0.010833731 0.0410036 -0.0033699085 0.046675812 -0.0017888409 -0.03108378 -0.102957346
0.0074039516 0.009328474 0.01622736 -0.03331028 0.023428531 0.0069852206 -0.04559444 0.0067315507
-0.005529261 -0.0025628363 0.0024895829 0.003928352 -0.0036340202 -0.00075632724 0.007466364 -0.00043675207
0.0040981555 -0.004483817 0.00033945087 -0.0013610817 0.0022839247 -0.013209288 -0.0036538322 0.0021868113
-0.0021443467 -0.016102208 0.0015328203 0.0025811563 -0.0011560547 0.004728018 -0.0022036342 0.0058348277
0.0028223647 -0.003975727 0.0011283484 -0.0074037076 -0.00045444924 -0.023229718 0.00065932947 -0.0032187516
0.0005293628 -0.00604993 -0.0012863145 -0.034162562 -0.0024215737 0.0020204089 0.0036458496 -0.0038184123
0.0019809268 -0.009822079 0.00983151 0.005084753 -0.0062790443 -0.0041960296 -0.001778031 -0.0020505842
0.005598204 -0.0016588662 -0.00038487848 -0.0032776287 -0.0018962577 -0.004766988 -0.0034125585 0.005760871
0.00079595816 -0.0070087905 -0.0014801761 -0.085694335 0.000967787 0.004076512 -0.15375227 0.00032889613
00000000: f533 13bd d91e c0ba f07d 9e3c 6c73 8b3c
00000010: 0879 f0bb 97a2 1ebc 8746 8a3b ec1f c4bc
00000020: 1b9b 703c e72d 96bc f327 a03c 8668 713c
00000030: e6a8 79bc 7983 42bc 41a4 db3b e6d8 513c
00000040: a0be c0bc 8856 39bd 076b 0f3d 9162 f6bc
00000050: 12a2 a1bc 38d1 08bb 5715 823c 765f bcbb
00000060: 28f7 17bb 2604 64bc 1d42 bd3b 57db 64bc
00000070: c0c7 f9bc c318 23bd e2ab 353c 8780 42bc
00000080: 5fb1 bb3c 4803 883c e643 19b9 fd1f f7ba
00000090: 43f4 40bc 0ed5 41ba f42d 943c 3770 263d
000000a0: 5005 10bc 0d35 423c 28ca af3c 94f1 13bc
000000b0: 2a49 c63c c9d5 393c c998 a8bb 1469 3c3c
000000c0: 4bc9 a3bc 2e47 bcbb dee4 4e3c 0833 523c
000000d0: b470 f3bb 7462 0b3c f282 6e3c aa23 8b3c
000000e0: 3a32 e6bb c890 4f3b 6f55 3ebc 3d4f 8d3c
000000f0: aec3 d7ba 43b6 8abc 8a43 293c dbd4 81ba
00000100: 33b1 84ba cc04 a9bb d6b6 34bc b218 14bb
00000110: 0abc 83ba ff3a cab9 5562 07bb eb5d 11be
00000120: 8b40 3dba eb73 78bc da74 503c 2cad c53b
00000130: 9e3c 58bc b890 4c3c baf1 1cbc 6c75 6a3d
00000140: 83bf f33b 2556 b93b cedc e83b 7961 f6b9
00000150: 2f6b 4fbc 4fe4 05bc 16ac bfbb 3430 853d
00000160: 879c 613b 3cac 81bc 5be8 073a bd20 c33b
00000170: b085 6ebc d229 b0ba a7bf 653c e61a 1c3a
00000180: 17d9 4839 7ed3 26bb 7743 8cbd 6ff6 a3bb
00000190: 4e6a 84ba 8206 823b 8599 9339 d650 38b9
000001a0: ff34 36bc 8473 f4ba e338 3c3b 052a 493c
000001b0: 92a0 31bc b452 8abc ed13 0a3a 48d9 d03b
000001c0: 394a 7d3b 20b3 763b abe7 cbbd 4fc3 2ebb
000001d0: 7ffd e0bd 13ac 3cbc 53ce 79bb e7ec ae3b
000001e0: 3fae 3eba d6f6 863c 13d8 5f3a e4b0 acba
000001f0: 616a aebc e402 0abc 7ef7 5fbb f398 dbbd
00000200: 27fe 06bc 1eff 11bd 2555 6ebd 19da a7bc
00000210: 9daf 23bd 4303 2a3d 72a0 80bc 6d2d cbbc
00000220: d969 37bd 81ca e7ba 4cdc eabd cece 84bb
00000230: b517 fa3c 5985 313b 1c93 c8bc 6f1b 88bc
00000240: 4f64 e6bc d18d 3a3c 3a11 6c3c c6f2 223b
00000250: 91df 49bc fff6 34bc 4006 ca3b 692f 2abc
00000260: c627 5fbc d8f3 f73c 66a3 aabc 486b 3d3d
00000270: 9432 8bbb 8ce1 863d c877 9fbd d06f ffbc
00000280: e54d 613b 4300 4e3c e46c 09bb b309 39bc
00000290: 6e58 26bd 04f4 aebc 1e9a 9abc 4050 12bd
000002a0: 415d 92bd a536 2dbc eee1 393d e35b 2aba
000002b0: 99c4 2bbc b855 deb8 d9c8 f73a 969c bc3b
000002c0: 12da b5bc f67f 31bc 64f3 273d afd9 5cbb
000002d0: 232f 3f3d 8a77 eaba 69a3 febc 4ddb d2bd
000002e0: d99c f23b 75d6 183c 3eef 843c 5c70 08bd
000002f0: 31ed bf3c 47e4 e43b 3cc1 3abd 5794 dc3b
00000300: ce2e b5bb 42f5 27bb 4528 233b 68b9 803b
00000310: be28 6ebb 4344 46ba 67a8 f43b dffb e4b9
00000320: d249 863b fcec 92bb 53f8 b139 5366 b2ba
00000330: e6ad 153b c56b 58bc 2275 6fbb 9b50 0f3b
00000340: 2b88 0cbb c7e8 83bc eae8 c83a 9e28 293b
00000350: c286 97ba 7ded 9a3b d96a 10bb 1532 bf3b
00000360: 6cf7 383b d146 82bb 17e5 933a cd9a f2bb
00000370: 2543 eeb9 404c bebc dad6 2c3a b1f1 52bb
00000380: f0c4 0a3a 7e3e c6bb 8d99 a8ba 0bee 0bbd
00000390: 44b3 1ebb d668 043b 35ef 6e3b 543e 7abb
000003a0: 70d2 013b c9ec 20bc 5714 213c 009e a63b
000003b0: 71c0 cdbb d97e 89bb d20c e9ba 1863 06bb
000003c0: 2471 b73b 506e d9ba 84c9 c9b9 7ccd 56bb
000003d0: da8b f8ba 6534 9cbb 3ba5 5fbb b0c5 bc3b
000003e0: d9a7 503a ffa9 e5bb 7802 c2ba 8380 afbd
000003f0: 16b3 7d3a 4394 853b 3c71 1dbe b16f ac39

conv1.bias f4 [512]
0.0032513984 -0.00092430634 0.0036171176 0.00649928 -0.0021254122 -0.0038900324 -0.003153289 -0.0019911423
0.009678512 0.0061950632 0.0042614304 0.0037524307 -0.019347742 -0.00024550437 0.0044637015 0.0011601084
0.002345789 -0.014524968 -0.0014096124 0.002724704 0.0045338026 0.002106193 0.004461834 -0.0024668577
0.00012677177 -0.0010349829 0.0028551377 -0.0020653298 -0.00040345627 -0.029315507 0.005352492 -0.004733642
0.0027329712 0.007731964 -0.00047654682 -0.0014409319 -0.0010163503 0.0009835195 0.0033055667 -0.0035262038
-0.003114249 0.0024689035 0.004485439 0.00020590448 -0.0016457487 0.0039771106 -0.005079889 0.0056828703
-0.0004887129 -0.0025274025 0.009247981 0.0067479215 0.0015633171 -0.007956402 0.002847813 0.002860077
0.0032794564 0.0010384845 -0.00042338928 0.0018497292 0.0015139863 -0.0018299603 0.0017072235 0.00139178
0.011108607 0.012766476 0.021828916 -0.0066874283 -0.022314709 -0.024195207 -0.0016153062 -0.0037848793
0.0007050295 -0.0096840225 0.029681873 0.010754799 0.011829121 -0.014937792 -0.0015649993 -0.014781455
-0.013223205 -0.015712235 0.019144507 0.02212618 -0.0016184922 -0.014926999 -0.013171948 -0.004255685
-0.013493201 -0.016936649 0.0008868378 -0.017094523 0.012523413 -0.0037570233 -0.015081901 -0.00019929114
0.00068690255 -4.690496e-05 0.0002630629 -0.0045797955 0.013335576 0.0018088602 -0.0018158106 0.002192967
-0.016400276 -0.008642645 -0.0098036695 0.024180515 -0.01280203 -0.019715838 -0.018689733 0.0142060425
-0.016507708 -0.014275085 0.0009286889 -0.003994048 -0.01124275 0.017750837 -0.010214835 0.023992974
-0.0024266285 0.02646666 0.005791779 -0.0076298825 0.017653184 0.00068327266 -0.020139027 -0.029699527
-0.0027439152 -0.013693274 -0.010480438 -0.013733363 -0.0026994532 0.010495589 0.023292433 -0.010658062
-0.01557711 0.010092619 -0.017474916 -0.013656623 0.014547973 0.008322552 0.023501024 -0.014766618
0.007610915 0.0091728065 -0.024912164 -0.022103168 -0.014513561 0.013657016 -0.010641458 0.00772282
0.01928748 0.006407134 -0.003537052 0.003992751 8.7678076e-05 -0.005613202 -0.013725754 0.0015809867
0.010425247 -0.01740653 0.0040115393 0.012927561 -0.00046210672 -0.010380289 0.02201108 -0.01625076
-0.010752534 0.011076373 -0.003718345 0.0125956675 -0.016730225 0.009087248 -0.0039853975 -0.0069130785
-0.012000089 0.013563328 -0.01065569 0.010025376 -0.009302137 -0.01143632 -0.023889588 -0.004684207
0.016250111 -0.007303127 0.010991038 -0.01695824 0.012784536 -0.009801033 8.420835e-05 0.0029810318
0.0021192294 -0.001297892 0.0014635343 0.0018283118 0.00084156 -0.0003153756 0.0022756078 0.0010574908
0.0019426077 -0.001600502 0.00020066026 0.0011485593 -0.0007134992 0.008429738 -0.0017828426 0.0015573801
-0.00057634024 0.011719478 0.001220758 0.0013946143 -0.00038135564 0.0025533526 -0.00075043674 -0.0022477005
7.00423e-05 0.0017909348 0.0007720583 -0.0030295604 -0.00013169795 -0.004809269 0.00040977218 0.0023863174
-0.001006577 0.004358594 -0.00055371784 -0.0060515315 -0.0006471812 0.00091628317 0.001874229 -0.001561207
0.0010341741 -0.008812769 -0.006783856 0.0006141177 0.0019074542 0.003004656 -0.0017718647 -0.0014627959
-0.00025589432 0.0009570925 6.67825e-05 -0.00085655873 -0.0007036581 -0.00232563 0.0012472242 0.0031187756
0.00038570003 -0.001654423 -0.00042755448 -0.009422346 0.000543673 -0.0017144623 0.0041900263 0.0010864466
00000000: 6a15 553b 264d 72ba 2a0d 6d3b eaf7 d43b
00000010: 804a 0bbb eaef 7ebb 69a7 4ebb d37d 02bb
00000020: 9f92 1e3c f5ff ca3b 78a3 8b3b 57eb 753b
00000030: 287f 9ebc 0ab7 80b9 3e44 923b c70e 983a
00000040: cfbb 193b 22fa 6dbc bec2 b8ba f390 323b
00000050: 4b90 943b 0e08 0a3b 9434 923b 01ab 21bb
00000060: 0aee 0439 43a8 87ba 431d 3b3b 7c5a 07bb
00000070: fc86 d3b9 1327 f0bc f563 af3b ab1c 9bbb
00000080: a61b 333b 6a5c fd3b 08d9 f9b9 a7dd bcba
00000090: 0f37 85ba 70e9 803a 35a2 583b e217 67bb
000000a0: 6e18 4cbb 54cd 213b 97fa 923b 10e8 5739
000000b0: 2ab6 d7ba 6c52 823b 3375 a6bb 5f37 ba3b
000000c0: f81c 00ba c7a2 25bb d884 173c ab1d dd3b
000000d0: 38e8 cc3a 925b 02bc 60a2 3a3b 2170 3b3b
000000e0: 26ec 563b c21d 883a 59fa ddb9 9d72 f23a
000000f0: f370 c63a 47db efba eac4 df3a 636c b63a
00000100: e000 363c 7b2a 513c 8ed2 b23c 3722 dbbb
00000110: 56cd b6bc 0735 c6bc afb8 d3ba bd0b 78bb
00000120: bbd1 383a bca9 1ebc 6627 f33c e534 303c
00000130: eece 413c a4bd 74bc aa20 cdba ea2d 72bc
00000140: 24a6 58bc f2b6 80bc f1d4 9c3c f641 b53c
00000150: 9623 d4ba 5f90 74bc 27cf 57bc 4673 8bbb
00000160: 9612 5dbc babe 8abc ad7a 683a d009 8cbc
00000170: 002f 4d3c 6438 76bb 141a 77bc cff8 50b9
00000180: 4011 343a d1bb 44b8 b4eb 8939 1c12 96bb
00000190: 767d 5a3c 4717 ed3a 7e00 eeba e2b7 0f3b
000001a0: df59 86bc e199 0dbc 929f 20bc 3716 c63c
000001b0: 9bbf 51bc 1c83 a1bc 361b 99bc 76c0 683c
000001c0: 2c3b 87bc 0ce2 69bc 4273 733a 81e0 82bb
000001d0: 8333 38bc 346a 913c 205c 27bc ea8c c43c
000001e0: 1208 1fbb 9cd0 d83c f7c8 bd3b 1804 fabb
000001f0: 699d 903c a71d 333a 9afa a4bc 6c4c f3bc
00000200: 42d3 33bb c159 60bc 25b6 2bbc e601 61bc
00000210: 4fe9 30bb b1f5 2b3c c6cf be3c 279f 2ebc
00000220: 2337 7fbc 835b 253c 8e27 8fbc 07c0 5fbc
00000230: 9f5a 6e3c 505b 083c 3885 c03c afef 71bc
00000240: fc64 f93b 8a49 163c 9814 ccbc b411 b5bc
00000250: 49ca 6dbc adc1 5f3c 8359 2ebc b60f fd3b
00000260: c700 9e3c eff2 d13b e3cd 67bb 9fd5 823b
00000270: cfdf b738 f4ee b7bb fce1 60bc 1c39 cf3a
00000280: a8ce 2a3c 2498 8ebc 3b73 833b 1fce 533c
00000290: ea46 f2b9 1612 2abc 9550 b43c 5020 85bc
000002a0: 652b 30bc ad79 353c 7aaf 73bb 0f5e 4e3c
000002b0: d30d 89bc aee2 143c f097 82bb 1b87 e2bb
000002c0: 059c 44bc b938 5e3c 3495 2ebc 7a41 243c
000002d0: fe67 18bc 675f 3bbc 19b4 c3bc fa7d 99bb
000002e0: f41e 853c 124f efbb c113 343c 02ec 8abc
000002f0: 3b76 513c 8394 20bc 0399 b038 6a5d 433b
00000300: c5e2 0a3b 071e aaba 10d4 bf3a f7a3 ef3a
00000310: 239c 5c3a ff58 a5b9 5d22 153b 819b 8a3a
00000320: 199f fe3a efc7 d1ba 5468 5239 418b 963a
00000330: 1f0a 3bba e21c 0a3c 45ae e9ba 0121 cc3a
00000340: 8a15 17ba 0e03 403c d701 a03a 7ecb b63a
00000350: b0f0 c7b9 2656 273b f5b8 44ba 284e 13bb
00000360: ace3 9238 cdbd ea3a f563 4a3a 978b 46bb
00000370: 6618 0ab9 1397 9dbb b1d6 d639 c363 1c3b
00000380: 1fef 83ba 89d2 8e3b 6027 11ba ed4b c6bb
00000390: 98a7 29ba b932 703a b1a8 f53a 6aa1 ccba
000003a0: 208d 873a 6f63 10bc 1c4b debb befc 203a
000003b0: 8b03 fa3a c3e9 443b ea3d e8ba 49bb bfba
000003c0: 8e29 86b9 64e5 7a3a 950d 8c38 af8a 60ba
000003d0: b275 38ba 9969 18bb e679 a33a 5f64 4c3b
000003e0: c837 ca39 39d9 d8ba 6429 e0b9 2f60 1abc
000003f0: 4785 0e3a cfb7 e0ba 7d4c 893b 1967 8e3a

conv1.lin.weight f4 [512, 3]
-0.010170065 -0.0059654014 0.00843627 9.5000105e-05 -0.0045659808 -0.0022902798 0.0054057003 0.011307428
0.0011038665 0.004047166 0.0064248512 -0.0050459984 -0.0015265736 -0.0032401998 0.0015266133 -0.001658157
-0.0075671193 0.00063607807 -0.006140621 0.012852063 -0.004096995 -0.013483845 -0.014818603 0.0020663063
0.0049478468 0.012906238 0.00020731364 -0.008574473 -0.0050154994 0.008478575 0.0032535633 0.009454922
0.00062896137 0.0024303324 0.0075142747 0.0003760933 -0.14395322 0.17268954 -0.051431324 -0.004156154
-0.00056514377 0.004997043 0.0022899464 0.009247695 0.0015713639 0.0031709115 0.011919274 0.005497937
-0.010263215 -0.005393895 0.00801332 -0.30720496 0.33556575 -0.10512201 0.010889853 0.007236025
-0.0064035533 -0.009895659 -0.0066893715 0.007178001 -0.0053522405 -0.0015036005 0.0090021845 -0.036011837
0.036376845 -0.012628792 0.012423732 0.011344155 0.011395042 0.0024164284 -0.014499427 -0.0067421105
-0.0003140447 0.00040111877 0.0007212881 -0.0020319251 -0.015029485 -0.0058648693 0.0013989966 0.0056501306
0.00022619401 -0.004258769 -0.0063610575 6.1631436e-05 -0.010977418 -0.01543374 -0.0009893124 -0.27449507
0.31246096 -0.09304041 0.0036250157 0.009013977 -0.00024315223 -0.0014287204 -0.011612777 -0.00071794604
0.009181466 0.013530008 0.00253318 0.0053553563 0.0078111594 -0.0039078123 -0.00029410655 -0.0018801239
-0.0010209585 -9.5942225e-05 -0.003602902 -0.0012991719 -0.0018925497 -0.008933608 -0.0023676746 -0.00014064998
0.0028781616 0.0014473328 0.007223639 0.014343505 0.0043022665 0.01430972 0.010150417 -0.007824784
-0.0019463589 -0.010280556 -0.0018045062 0.0043030665 0.010352553 0.002693864 0.0047416342 0.008028839
-0.002409465 -0.002741234 -0.00021907428 0.0032143549 0.011886221 0.0072860634 -0.007612636 0.0038393172
0.013057354 0.005273693 -0.0728789 0.081428744 -0.024573142 0.004286547 0.014114149 0.0070802
-0.006262038 -0.014412032 -0.0036116887 -0.0052671772 -0.010175386 -0.0026338622 0.0031192857 0.005436851
-0.0051149186 0.006042312 0.012772353 0.005005239 -0.0021662912 0.00461825 0.00586104 -0.007726098
0.024496296 -0.007444065 0.0047797346 0.012120142 0.0028086356 0.0053114835 0.011475721 0.00323174
1.885005e-05 -0.0008965273 0.003516694 0.0018365124 0.004841228 0.0018416165 -0.005191606 -0.0061942665
-4.4897675e-05 0.0039603594 0.009514517 0.0024380297 0.001565735 0.0035209386 0.0026097859 -0.0062859454
-0.014037926 -0.002730518 0.0024562015 0.009900884 0.0034143904 0.009402671 -0.004129601 0.00015655458
0.0061387024 -0.000762813 0.0047987993 -0.005466905 -0.015846917 -0.0062538018 0.0021908488 -0.019826531
-0.011840111 -0.006642467 0.0027495734 -0.0044312957 -0.011223921 0.014215049 0.0029340952 -0.003814998
0.025595734 0.0076944027 -0.0032433295 0.0008241965 0.0015359472 -0.26633477 0.3557052 -0.057414174
-0.0017335726 2.8401571e-05 0.0015856874 -0.0055140513 0.043274112 0.010252446 0.03722732 -0.021226805
-0.008486353 0.0037675935 -0.0059071803 -0.00724373 -0.015227245 -0.016626028 -0.0013376522 0.014717076
0.020073278 0.011153177 -0.010562604 0.0077096107 0.0075739115 0.092080936 -0.09119159 -0.0025386242
0.008479717 0.017104503 0.010726039 0.005590641 0.018567061 0.011891379 0.021793023 -0.01016025
-0.011457238 0.014025002 -0.017131703 -0.013806982 -0.010152527 0.022669904 0.0061410856 -0.017263127
00000000: 58a0 26bc 6a79 c3bb 4838 0a3c cb3a c738
00000010: 399e 95bb 8518 16bb 4d22 b13b ca42 393c
00000020: 9daf 903a 179e 843b 8f87 d23b e758 a5bb
00000030: 4f17 c8ba 8859 54bb a418 c83a 8456 d9ba
00000040: 99f5 f7bb 7abe 263a 4337 c9bb 7691 523c
00000050: 1640 86bb 58eb 5cbc bac9 72bc de6a 073b
00000060: 8c21 a23b b074 533c 5562 5939 f27b 0cbc
00000070: 0f59 a4bb b9e9 0a3c bc39 553b d1e8 1a3c
00000080: e2e0 243a 3646 1f3b 4e3a f63b 632e c539
00000090: 7968 13be 87d5 303e a7a9 52bd 5930 88bb
000000a0: 2826 14ba 3cbe a33b ed12 163b a583 173c
000000b0: 39f6 cd3a 11cf 4f3b 0f49 433c 0a28 b43b
000000c0: 0b27 28bc 45bf b0bb 4d4a 033c f849 9dbe
000000d0: 46cf ab3e 354a d7bd 5b6b 323c 2d1c ed3b
000000e0: e6d4 d1bb 6721 22bc 8432 dbbb 7035 eb3b
000000f0: d961 afbb 7614 c5ba e67d 133c 2681 13bd
00000100: e3ff 143d fee8 4ebc e98c 4b3c d6dc 393c
00000110: 45b2 3a3c f15c 1e3b 018f 6dbc ecec dcbb
00000120: 5ea6 a4b9 404d d239 d314 3d3a 0c2a 05bb
00000130: 3b3e 76bc 172e c0bb 895e b73a bb24 b93b
00000140: 7e2e 6d39 258d 8bbb 6b70 d0bb 2040 8138
00000150: a1da 33bc ccdd 7cbc d1ab 81ba 9e8a 8cbe
00000160: e2fa 9f3e f88b bebd ac91 6d3b 5caf 133c
00000170: aef6 7eb9 e743 bbba 8443 3ebc 8b34 3cba
00000180: dc6d 163c f7ac 5d3c b503 263b fc7b af3b
00000190: c1f4 ff3b 1b0d 80bb 5032 9ab9 7d6e f6ba
000001a0: afd1 85ba 9734 c9b8 aa1e 6cbb fa48 aaba
000001b0: 6e0f f8ba 455e 12bc fd2a 1bbb 717b 13b9
000001c0: 8a9f 3c3b 6eb4 bd3a 47b4 ec3b 0501 6b3c
000001d0: 07fa 8c3b 5173 6a3c ef4d 263c 8633 00bc
000001e0: f81c ffba c76f 28bc 2e85 ecba bd00 8d3b
000001f0: c19d 293c 8a8b 303b b65f 9b3b 648b 033c
00000200: 1de8 1dbb 46a6 33bb 4eb7 65b9 eda7 523b
00000210: 6dbe 423c eebf ee3b 6b73 f9bb 0e9d 7b3b
00000220: 83ee 553c f1ce ac3b 8841 95bd 1dc4 a63d
00000230: 9d4d c9bc 2a76 8c3b 083f 673c 0601 e83b
00000240: c831 cdbb 7220 6cbc 15b2 6cbb 4998 acbb
00000250: aab6 26bc e09c 2cbb ee6c 4c3b 9d27 b23b
00000260: 0c9b a7bb 96fe c53b 2243 513c fd02 a43b
00000270: 56f8 0dbb b054 973b f80d c03b 352b fdbb
00000280: 75ac c83c 58ed f3bb 529f 9c3b 8f93 463c
00000290: 1611 383b f40b ae3b aa04 3c3c 9acb 533b
000002a0: 2d20 9e37 ee04 6bba 5678 663b 21b7 f03a
000002b0: 2aa3 9e3b 6562 f13a 591e aabb 46f9 cabb
000002c0: 8350 3cb8 e7c5 813b c7e2 1b3c 5ac7 1f3b
000002d0: 5939 cd3a 8cbf 663b f108 2b3b 55fa cdbb
000002e0: 54ff 65bc 7ef2 32bb 39f8 203b 5137 223c
000002f0: f7c3 5f3b a90d 1a3c 9b51 87bb cd28 2439
00000300: 2b27 c93b 84f7 47ba 3f3f 9d3b b923 b3bb
00000310: 65d1 81bc b1ec ccbb 5894 0f3b 406b a2bc
00000320: 06fd 41bc 0da9 d9bb 3032 343b 6734 91bb
00000330: 89e4 37bc 3de6 683c f349 403b 0c05 7abb
00000340: 25ae d13c 5421 fc3b 0a8e 54bb e40e 583a
00000350: d651 c93a 085d 88be fe1e b63e 202b 6bbd
00000360: 0b39 e3ba e93f ee37 d7d6 cf3a 37af b4bb
00000370: 3240 313d e0f9 273c ad7b 183d d6e3 adbc
00000380: 580a 0bbc bbe9 763b 0591 c1bb d05c edbb
00000390: b27b 79bc 4f33 88bc 2954 afba e41f 713c
000003a0: b770 a43c d1bb 363c c60e 2dbc e7a0 fc3b
000003b0: 932e f83b ee94 bc3d a8c2 babd 0c5f 26bb
000003c0: 83ee 0a3c be1e 8c3c 45bc 2f3c b231 b73b
000003d0: f319 983c 0fd4 423c 4887 b23c 2d77 26bc
000003e0: 24b7 3bbc 1fc9 653c c957 8cbc ae36 62bc
000003f0: c956 26bc 3cb6 b93c 293b c93b 676b 8dbc

conv2.att_src f4 [1, 1, 2]
1.1811196 0.66890895
00000000: ed2e 973f 9e3d 2b3f

conv2.att_dst f4 [1, 1, 2]
-0.28350523 0.33175808
00000000: 9927 91be 32dc a93e

conv2.bias f4 [2]
0.21732335 -0.21732399
00000000: 038a 5e3e 2e8a 5ebe

conv2.lin.weight f4 [2, 512]
-0.015171401 -0.002685224 0.012644007 0.014241202 -0.004139713 -0.008002645 -0.023008486 -0.021810737
0.015459802 -0.0073767705 0.009076884 0.007070613 -0.14602321 -0.008492124 0.008080057 0.006913143
-0.0119227 -0.31418368 0.015527089 -0.012164931 -0.0055906256 -0.043127514 0.0136669725 -0.0064275856
-0.00023899501 -0.009445702 0.0058258767 -0.0075186016 -0.018341247 -0.2809503 0.008486946 -0.009398388
0.01469985 0.011839747 -0.00078220567 -0.002516039 -0.0077222423 0.0011138412 0.012133805 0.018577082
-0.008036687 0.008370076 0.012753398 -0.0029840462 0.015128215 0.00991805 -0.0860038 0.01085791
-0.013601035 -0.01034113 0.015713222 0.013134236 -0.0004908425 -0.03255626 0.010852248 0.012367031
0.0055376287 0.0027679382 -0.007848587 0.008772502 0.0035932413 -0.012560493 0.0067414157 0.03661106
0.0036523154 -0.0049563744 0.0058680275 0.0001449947 -0.007095116 -0.0064859525 -0.0011528548 -0.2671378
-0.00075401616 -0.03863348 0.017831586 0.021277813 -0.014081703 0.0026289816 -0.020209676 0.055743456
7.6157687e-07 -0.0029321364 0.019666525 0.013250695 -0.026003238 -0.01934368 -0.014679117 0.085352845
-0.0042678057 -0.011645841 0.00085178023 -0.0017560842 -0.017139316 -0.001958994 0.0035263482 0.0017448175
0.00085178827 -0.0062490716 -0.059826802 -0.0013953529 0.0127340015 -0.0055422834 -0.008761155 0.0006255645
-0.008931077 -0.00012824741 -0.012089376 0.007121841 -0.00799682 -0.012746649 -0.009508556 0.01893644
-0.0023060257 -0.0077501307 -0.1453478 -0.011329924 -0.19144107 -0.0056350813 -0.0052104387 0.015765728
-0.006062595 0.012541738 0.010322726 -0.0054372638 -0.016483111 -0.016105328 -0.0060182433 -0.19294749
-0.008295227 -0.04591933 -0.07650435 -0.030514147 -0.07950032 0.05117572 0.025623355 -0.031616453
-0.049976427 0.011181867 -0.2821562 -0.063269034 0.040315147 0.010825602 0.019883502 -0.0330048
-0.02177259 0.017573372 -0.05048616 -0.048706673 -0.028446121 0.009785324 -0.025471644 0.00745878
0.028108036 0.024942808 -0.016257083 0.12288502 -0.00031775364 0.05506318 -0.07783563 -0.007317269
0.018482504 -0.019021655 0.005752621 0.008425084 -0.033348378 -0.032548986 0.020824136 -0.045804102
-0.16085613 0.008803057 0.09977171 0.041779995 -0.037649505 0.011293646 0.0030468518 -0.0048035537
-0.032026477 0.009876628 0.007448815 0.0106267175 0.019313598 -0.019372785 -0.062252697 -0.27125904
0.0373093 -0.0057583884 0.025013812 -0.04430604 0.035997875 -0.019428376 -0.03249672 0.010948452
0.008593893 0.0074982443 0.00470137 -0.0009716299 0.008521101 0.00018028576 -0.004063594 0.008910815
-0.00042352974 0.0010722595 -3.0635208e-06 0.0007219873 0.0076323054 -0.027206263 0.00029963718 -0.00047634094
0.0005211775 -0.000670923 0.0017513738 0.00042797765 0.0003422436 0.0052429936 0.00061977125 -0.00811562
-0.006757181 0.0068546706 0.00031918276 0.0017727212 0.00010647636 -0.046159904 0.00011842438 0.0058044107
0.001029889 0.0037411815 0.00031682913 -0.05852274 0.0005026209 -0.0004819258 -0.00022417217 0.0010159035
9.057321e-05 -0.009540654 0.01334395 -0.006486056 0.006727734 0.0013489028 -0.005453897 0.00072100596
-0.007554061 -0.003281758 0.0056880014 0.0007213228 0.00027783576 0.00081659923 -0.008579395 -0.0037106986
-1.4555595e-05 0.007229029 0.00028189414 -0.16416319 -0.0008054976 -0.00832478 -0.36461228 0.00015747083
00000000: 7891 78bc 95fa 2fbb cf28 4f3c ee53 693c
00000010: 6ea6 87bb 871d 03bc 4b7c bcbc 6eac b2bc
00000020: 1c4b 7d3c d6b8 f1bb 36b7 143c 9ab0 e73b
00000030: 1c87 15be 8d22 0bbc 3762 043c a687 e23b
00000040: 6e57 43bc afdc a0be 5565 7e3c 6b4f 47bc
00000050: 9131 b7bb 7aa6 30bd 70eb 5f3c 7f9e d2bb
00000060: bc9a 7ab9 25c2 1abc ffe6 be3b 9a5e f6bb
00000070: 6240 96bc b8d8 8fbe d50c 0b3c b2fb 19bc
00000080: a4d7 703c 80fb 413c ef0c 4dba 21e4 24bb
00000090: dd0a fdbb 4ffe 913a decc 463c f72e 983c
000000a0: 4fac 03bc a522 093c a1f3 503c fd8f 43bb
000000b0: 55dc 773c 517f 223c c322 b0bd 60e5 313c
000000c0: e0d6 5ebc d86d 29bc 04b9 803c fb30 573c
000000d0: e2ab 00ba b659 05bd a1cd 313c 169f 4a3c
000000e0: ff74 b53b 4c66 353b 5c97 00bc 8aba 0f3c
000000f0: 967c 6b3b 87ca 4dbc 18e7 dc3b 7bf5 153d
00000100: af5b 6f3b 1569 a2bb 9548 c03b b809 1839
00000110: 267e e8bb 1d88 d4bb 631b 97ba 49c6 88be
00000120: 2ba9 45ba 243e 1ebd 8c13 923c cf4e ae3c
00000130: f1b6 66bc fe4a 2c3b c38e a5bc 4053 643d
00000140: 2a6f 4c35 1629 40bb b11b a13c 7119 593c
00000150: be04 d5bc a376 9ebc ae80 70bc 79cd ae3d
00000160: f3d8 8bbb 33ce 3ebc 014a 5f3a 682c e6ba
00000170: c067 8cbc 7762 00bb 4e1a 673b 5cb2 e43a
00000180: 8b4a 5f3a 03c5 ccbb f30c 75bd 46e4 b6ba
00000190: 46a2 503c 0b9c b5bb f38a 0fbc ecfc 233a
000001a0: a753 12bc 277a 06b9 8512 46bc 555e e93b
000001b0: 1805 03bc 52d7 50bc c6c9 1bbc 9820 9b3c
000001c0: b120 17bb cff4 fdbb 0ed6 14be 25a1 39bc
000001d0: 2109 44be 7da6 b8bb 54bc aabb 2127 813c
000001e0: bca8 c6bb dd7b 4d3c a720 293c 132b b2bb
000001f0: 9707 87bc 52ef 83bc af34 c5bb 0794 45be
00000200: b4e8 07bc e815 3cbd 50ae 9cbd cef8 f9bc
00000210: 10d1 a2bd a29d 513d 12e8 d13c 4180 01bd
00000220: 15b4 4cbd 2634 373c c776 90be 3293 81bd
00000230: 7f21 253d de5d 313c bae2 a23c 0b30 07bd
00000240: 6e5c b2bc 08f6 8f3c 93ca 4ebd a680 47bd
00000250: d707 e9bc a052 203c e9a9 d0bc c868 f43b
00000260: d342 e63c dc54 cc3c 932d 85bc 24ab fb3d
00000270: 2c98 a6b9 ee89 613d 4968 9fbd b4c5 efbb
00000280: 9f68 973c 4dd3 9bbc 7c80 bc3b 5d09 0a3c
00000290: 4f98 08bd 1652 05bd 6197 aa3c 159d 3bbd
000002a0: 78b7 24be b23a 103c 1c55 cc3d 8021 2b3d
000002b0: 5e36 1abd fc08 393c b1ad 473b 2167 9dbb
000002c0: 322e 03bd 95d1 213c 3015 f43b af1b 2e3c
000002d0: 8d37 9e3c adb3 9ebc affc 7ebd 77e2 8abe
000002e0: a3d1 183d ddb0 bcbb c4e9 cc3c 407a 35bd
000002f0: 8272 133d 4228 9fbc 481b 05bd 2361 333c
00000300: 66cd 0c3c d5b3 f53b f30d 9a3b fbb4 7eba
00000310: 179c 0b3c 170b 3d39 e627 85bb abfe 113c
00000320: 330d deb9 0f8b 8c3a e396 4db6 bf43 3d3a
00000330: 6b18 fa3b abdf debc 9f18 9d39 66bd f9b9
00000340: a19f 083a e1e0 2fba 5a8e e53a 3062 e039
00000350: 296f b339 6bcd ab3b 2578 223a 61f7 04bc
00000360: 586b ddbb 259d e03b fc57 a739 a75a e83a
00000370: 0f4c df38 2b12 3dbd 9b5a f838 ed32 be3b
00000380: 57fd 863a 9c2e 753b 161c a639 8ab5 6fbd
00000390: 51c2 033a fcaa fcb9 c20f 6bb9 1128 853a
000003a0: 1ff2 bd38 6750 1cbc 95a0 5a3c fb88 d4bb
000003b0: 5374 dc3b abcd b03a 9bb6 b2bb e401 3d3a
000003c0: 0e88 f7bb c312 57bb 6a62 ba3b 2717 3d3a
000003d0: 7caa 9139 0c11 563a 9790 0cbc 312f 73bb
000003e0: ce33 74b7 7ee1 ec3b 31cb 9339 651a 28be
000003f0: 0728 53ba a864 08bc 76ae babe c11e 2539
